model/model.pth (torch, 17216 bytes, 4 tensors)

linear1.weight f4 [256, 11]
00000000: 4333 0d3f 25af 7b3e b3cd 09bf 84c0 07bc
00000010: d177 963e 7588 05be 275d 873d 569e 1a3e
00000020: 8e69 55be 25b8 763e 776e ab3d 6775 013c
00000030: 11f5 073e a8e4 003c 988b b73c 3cf0 403d
00000040: 82a9 b5bd af5b 573d c88e 83bd 5dd3 a43b
00000050: 7e5e 01be 79c2 e7bc db07 8cbc 00ee 45be
00000060: 1529 b23c b4c4 6a3e da50 f2bd 00f2 c63d
00000070: 9f1b f2be de94 b6be e236 e6be 8601 18be
00000080: 269e e03e a88c f1be 9627 d53e 1d57 8e3e
00000090: 2b6f a2be f147 75bc 9234 c33d 4a43 9cbe
000000a0: e8ee 313e a60f 153d b07b 97bc 949e 923e
000000b0: ceb7 583d 8ba1 dbbe 7454 183e 1a8a b4bd
000000c0: 807c 5c3e df18 483e 54bf 66be 1824 babd
000000d0: 1284 f1bd 8d11 a5be 14dd ae3e 1293 023d
000000e0: 0c16 513d 711f b63b eeee 74bd 30b6 ad3d
000000f0: 6034 f03d e13c 8b3d 6095 1ebe c4cb 17be
00000100: 1962 ddbd 701c 85be 7ea9 28bf c7f1 a9be
00000110: ae7f ea3e 46b1 7cbe 4735 94bd 5870 adbd
00000120: fbee 963d accf c0bd 61aa f13d 9f8f 27bd
00000130: cda4 1d3e cbc3 43bd d513 46be d263 fa3e
00000140: 4e05 74be 6cbd 873e aa5e 853e 5124 b4be
00000150: a2b6 a8be e026 123e 11b7 56be f543 dc3d
00000160: 2f84 3ebe 585a 2fbe 9cb0 dcbe 26b3 84be
00000170: de38 98be 0031 bcbe 0e08 0d3e ebd1 0fbe
00000180: 5951 4ebe b9b6 d5bd 73b5 c33e 9b2c b3bd
00000190: fc17 a73d 2080 093f 2952 bfbd e987 6dbe
000001a0: 65aa 8bbe cc2d 8c3a 8a9f c23b f5e9 a43e
000001b0: 682f a93e 7dcb 11be ce2a d93c bed5 823e
000001c0: 1372 c63d a958 c8bd 809c 42bd 8d74 833c
000001d0: 27f9 cfbd 2127 bc3e a121 8f3e 39d0 a53e
000001e0: 31a9 b33e c49f 883d fcad 45be 7489 9fbe
000001f0: 77e8 ec3d f007 8abe aabc 22be a183 973d
00000200: 2671 223e 8ede dc3d 21ba 823e 657f 71be
00000210: 6ffd 583e 3000 a8be 8a5b 213f 154a 253e
00000220: c778 02be b0f3 793d 1011 ab3d 34e9 a73d
00000230: e704 30bd f1e7 babc 9eec da3d e0f0 953c
00000240: ab3a 953e 0ed1 ff3d cb8e dcbb 3658 c1be
00000250: d73c edbd b443 d23c 26f1 ae3d 913e ea3e
00000260: 9cf6 a73e 2de9 903e fc4c f6be 906f 4d3e
00000270: 4c00 6a3e 8682 2f3d e045 59bc e97a 2fbe
00000280: e281 b9b8 cc6b 653e ee57 813e 569c d03d
00000290: fcee 353e 0191 1d3e 1cef 503e 8012 86bd
000002a0: 9fa9 403e 10bb e9be 81d9 0dbd 4678 9dbe
000002b0: 5285 01be 8229 b83d 8fd4 5ebe bf9e bf3e
000002c0: 9053 c13e 5d7d 243e 94af 94be fa98 193e
000002d0: 934e 303e 6554 483e d779 863c 76c1 e1bd
000002e0: a230 afbe 23d2 75bd da2f 41be c474 79bd
000002f0: bee6 243f 7c13 b1bd 6471 d63d d5ef a53e
00000300: 32dc 8d3e 2b57 50be 58a1 693d 12c2 10be
00000310: 8664 67be 4cca 15bf 1bea 14be 18a3 993e
00000320: f6ab dbbd 40b6 54be 9486 ad3e f3c4 963d
00000330: 45d9 92be 2992 88bd f4a4 383e 216a 60be
00000340: 945e 0cbe 960c a63e bbc5 803e ac63 f03e
00000350: 0aa1 9b3d 3fe5 ba3d abeb 393e 155c 6dbe
00000360: 7642 13be 2993 13be f580 6fbe f88b 583e
00000370: 4058 a9be 59a2 3dbd b277 9b3e ca56 95ba
00000380: 811d 393e da54 6d3e 1009 37bd 2976 bdbe
00000390: 241c 94bc 253b 4bbe 8887 0d3e 7cf3 77be
000003a0: ba5b 37be 3884 f13d 6454 51be afc1 16be
000003b0: 145b 05be 0ac9 cbbe 22da 853e 5028 11bd
000003c0: a7da f53d 2181 af3e 14a1 16bf 8b5a 463d
000003d0: 5f7e b93e e8a4 7c3e d6c5 5d3e 05e1 77bd
000003e0: 3710 54bc 78b7 ddbc f582 34bd 4e57 703e
000003f0: 89ae 0e3e d885 283d 487e d1bd 0a37 cd3e
0.55156344 0.24578531 -0.538295 -0.008285645 0.29388288 -0.13040335 0.06609564 0.15099463
-0.20841047 0.24093683 0.08370679 0.007901526 0.13277079 0.007867016 0.02240543 0.047104105
-0.08870222 0.05257767 -0.06423718 0.0050300793 -0.12633702 -0.028290974 -0.01709359 -0.19329071
0.021748105 0.22926599 -0.118318275 0.097141266 -0.47286698 -0.35660452 -0.44963747 -0.14844331
0.43870658 -0.47177625 0.41631764 0.27800837 -0.3172544 -0.014970765 0.09531511 -0.30520087
0.17376292 0.036391877 -0.018491596 0.2863661 0.052909665 -0.42896685 0.14875966 -0.08815403
0.21531868 0.19540738 -0.22533923 -0.090889156 -0.117927685 -0.32239953 0.34153044 0.03187854
0.051046416 0.0055579473 -0.059798174 0.08482015 0.1172874 0.06798721 -0.1548667 -0.14823824
-0.10809726 -0.2599826 -0.65883625 -0.33192274 0.45800537 -0.24677 -0.07236724 -0.084686935
0.07369801 -0.0941461 0.11800075 -0.040908452 0.15394898 -0.047794145 -0.19343503 0.48904282
-0.23830149 0.26511705 0.26048785 -0.35183957 -0.32951838 0.14272642 -0.20968272 0.10755149
-0.18605112 -0.17124307 -0.43103492 -0.2591793 -0.29730886 -0.36756134 0.13772604 -0.14044921
-0.20148219 -0.10435242 0.38224372 -0.08748742 0.081588715 0.5371113 -0.09341843 -0.23196377
-0.27278438 0.0010694801 0.0059394287 0.32209745 0.3304398 -0.14237781 0.026509669 0.25553697
0.09689727 -0.097825356 -0.04751253 0.016046787 -0.10154944 0.36748603 0.27955344 0.32385424
0.3509002 0.06671098 -0.19304651 -0.31159556 0.11567777 -0.2695918 -0.15892282 0.07398153
0.15863475 0.107846364 0.2553263 -0.23583753 0.21190427 -0.32812643 0.630303 0.16141541
-0.12741385 0.061023414 0.08352864 0.08198777 -0.042973425 -0.022815676 0.106896624 0.018303335
0.29146323 0.12491046 -0.0067308894 -0.37762612 -0.1158387 0.025667049 0.08542089 0.4575086
0.32805336 0.283029 -0.4810561 0.20062089 0.22851676 0.042849086 -0.013261288 -0.1713673
-8.84568e-05 0.22404402 0.25262398 0.10186069 0.17766947 0.15387346 0.20403713 -0.06546497
0.18814705 -0.4565053 -0.034631256 -0.30755824 -0.12648514 0.08992292 -0.21760772 0.374258
0.37759066 0.16063447 -0.29040205 0.14999762 0.17217474 0.19563444 0.01641552 -0.11023228
-0.3421679 -0.060014855 -0.1886591 -0.060902372 0.64414585 -0.086462945 0.10470846 0.3240954
0.27707058 -0.20345752 0.057038635 -0.14136532 -0.2259694 -0.58511806 -0.14542429 0.30007243
-0.10726158 -0.20772648 0.33891737 0.07361784 -0.28681388 -0.06668503 0.18031675 -0.21915485
-0.13707954 0.32431477 0.25150856 0.46951044 0.07599075 0.091257565 0.18156306 -0.23179658
-0.14380822 -0.14411606 -0.23389037 0.21147144 -0.33075142 -0.046297405 0.30364758 -0.0011393663
0.18077661 0.231769 -0.044686377 -0.37004212 -0.018079825 -0.1984678 0.13821232 -0.24213976
-0.17906085 0.11792797 -0.20442349 -0.14722322 -0.13023025 -0.39801818 0.26142985 -0.035438836
0.12004595 0.34278205 -0.58839536 0.048426192 0.36229226 0.24672282 0.216575 -0.06051733
-0.012943319 -0.027065024 -0.044070203 0.23470804 0.13933767 0.04114327 -0.10229164 0.40081054

linear1.bias f4 [256]
00000000: 0bbe 07be 832e 4ebe 83d8 e6bc ba2d 88be
00000010: 3b29 15be eeec 59bd 03cb 333e 0c0b 7d3c
00000020: b3e6 333d d4d3 843d c001 8abe d7c7 96be
00000030: 884b 733e da69 c1bd d73b 0a3e 40b5 85bd
00000040: 9699 263e 909d 843e 5a8d 2cbe a7c7 45bd
00000050: 4047 693d 24d7 c2bd 2075 8e3e 3724 2dbe
00000060: 3887 c9bd 5f75 2b3e b7bb 9bbd 33c3 11be
00000070: 084e b7be e904 2dbd 65b8 51bd e8fa b7bd
00000080: 1648 e6bd b09f d0bc 15bb f6bc 69f6 c63d
00000090: f086 263e 02d4 873e cd23 ef3d eb71 3ebe
000000a0: 9f7c cc3e 391a d93b 70ab 00be fa40 e5bd
000000b0: 11f9 843d d44a e23c 47da 08be 4ce3 003d
000000c0: bc3b 6a3d f8a7 de3c b473 f73d f716 4b3d
000000d0: 8fd9 52be ee1b 143e e5ac bc3d 2ac5 11be
000000e0: 2b95 75bd b750 70bd 8479 babd 48e6 233c
000000f0: 5621 3f3d 7900 3f3d 111f 443d 5e35 d83d
00000100: 7cff 7d3d 7af9 8e3e 121a 11be 8cf8 d1bc
00000110: 755e 453d 7f97 1f3e a998 4c3e 5a19 67be
00000120: d3eb 323e 8f6b b0bd d3d3 aebd 90a5 c1bd
00000130: 550e 2d3e d718 71bd eaf8 a23e 25d0 f6bd
00000140: a39a 09be 9b97 8dbd 72b6 01be 2710 e4bd
00000150: 023a eabd 0d76 01be 62ce c7bd 40c1 0f3f
00000160: 2ea9 bbbd 7497 933d 3549 d0bd ead5 a0bd
00000170: 75f9 12be cd61 31be a39f 4fbe dd8a 70be
00000180: 66ed f0bc b5a9 8ebe d778 ab3c 6275 87be
00000190: 4036 513d 4965 48be 9c47 853d ab2a 38bd
000001a0: 046b 503e fcc1 3b3e a1d7 fa3d a8ba 80bd
000001b0: 765f 35bd 5b6f e9bd 5b68 ab3e cb64 8ebb
000001c0: 4f8b a43d cd46 bdbd 74eb 0bbe c60a 973e
000001d0: e46c a73e 2398 9a3e f89e 4a3e 11f0 1f3e
000001e0: 01a0 dc3c 148f f6bd b2fc a6be 0a5f bbbd
000001f0: ea4f c0bd 1301 41be 38e3 c3bd e63a 45bd
00000200: 85e9 1f3d 7ee2 8dbd eb5c de3d 3f9d 88ba
00000210: eaa7 78be 79b3 b0bd 0f19 e7bd 7188 543e
00000220: b550 1dbe 225e 85bd 9aa7 05be fad8 073e
00000230: f237 a2bd 6c4d a6be 92fa 2a3e d4f2 833e
00000240: 6091 8abc dc76 e5bd adc0 9fbe 049f 29be
00000250: cdbc 72bb ad4e 6ebd ddaf 28bd 532b 61be
00000260: 5469 91be 0e9d 19be fd6d b0be 5a50 27bd
00000270: 13df 45be 7f36 b73c 237d 91bd 89db 333c
00000280: ee56 18be 0346 80be 0a39 65bd 93fa 88be
00000290: 1cba 4ebe 7494 1a3e 8594 b2bd 80b1 fdbd
000002a0: b338 99bd f6a9 b1be b509 66be d16d 0ebe
000002b0: 1f09 99bb f6e8 84bd 142c 7abd 36b7 9bbe
000002c0: 9db7 e3bd e622 08be 9dea c0bd d83a 80be
000002d0: 1e7c 1bbe 9db4 10be 3df0 94be 61c2 92be
000002e0: 1396 9cbd d20d 0f3f b804 dc3d 03fb a23c
000002f0: efd2 29be c5df 5cbe 3ff8 0b3e df82 843e
00000300: 9c87 5b3c 11ff 32be 4d2d 85be db4e cdbd
00000310: 543e e7bd 33fe fabd 2c6b 8dbd 3295 043e
00000320: 47b2 c63e a0cb 08bd 0e7b 35be 739f 1abe
00000330: 02e9 7d3e a540 523e ecf0 dfbc 644c 56bd
00000340: 4f37 c83d da8f 28be 08e9 353b 0937 893e
00000350: 2577 613e 80f5 9bbb ae5a d3bc 17ba 3dbe
00000360: 4edb 43be 44dc f13c 2f7b ecbd 8dfe 8b3e
00000370: f442 9c3e 7e4f b4bd aae8 41be 16f4 1cbe
00000380: ff5d 813e a2f6 223e 02bf 56be 1953 8bbe
00000390: ecf0 003e 355f ff3d 2c30 85bd 2705 3dbe
000003a0: 1006 a6bd 6e02 783e 0214 51be 722b 233d
000003b0: 26a4 8dbe 2881 4cbe 83b1 2dbd 78a6 70be
000003c0: 22ea 753e 186f 4fbe 34cd 4b3e db09 b63d
000003d0: d1dd 9fbd 5238 7dbd aa33 923e ece1 8dbe
000003e0: 049a 9ebd 4567 9bbe bea1 e8bd 04bb 99bd
000003f0: b4d2 013f 3a33 1bbd 8b6c 473d 7bfc ed3b
-0.1325609 -0.2013493 -0.028179413 -0.26597387 -0.1456651 -0.05320447 0.17557912 0.015444528
0.043921184 0.064857155 -0.2695446 -0.2944934 0.23759282 -0.09444018 0.1349939 -0.06528711
0.16269526 0.2590146 -0.16850796 -0.048286106 0.056952715 -0.09513691 0.27823734 -0.16908346
-0.09840244 0.16743992 -0.07604163 -0.14234619 -0.3580172 -0.04224101 -0.051201243 -0.089834034
-0.11244218 -0.02546677 -0.030118505 0.09714968 0.16262412 0.26528937 0.1167675 -0.18598144
0.39938828 0.0066254404 -0.12565398 -0.11194034 0.06492818 0.027623571 -0.13364516 0.031466767
0.057185873 0.027179703 0.120826155 0.049582448 -0.20590805 0.1446378 0.092126645 -0.14235368
-0.05995671 -0.058670726 -0.091052085 0.010003634 0.04666265 0.04663131 0.04788119 0.10557054
0.062011227 0.2792471 -0.14170101 -0.025631212 0.048185784 0.15585135 0.1998011 -0.22568265
0.17472772 -0.08614265 -0.08536496 -0.09455407 0.16899998 -0.05886158 0.3183053 -0.12051419
-0.13437895 -0.06913682 -0.12667254 -0.11135893 -0.11436845 -0.12642689 -0.09756161 0.5615425
-0.09163128 0.07206622 -0.10170213 -0.07853301 -0.14352973 -0.17322464 -0.2027574 -0.23490472
-0.029410075 -0.2786385 0.020931644 -0.26456743 0.051077127 -0.19569887 0.06507799 -0.044962566
0.20353323 0.18335718 0.12248159 -0.06285602 -0.04428049 -0.113981925 0.33478054 -0.0043455116
0.080343835 -0.0924202 -0.13664037 0.29500407 0.32700264 0.30194196 0.19787204 0.15618922
0.026931765 -0.12039009 -0.32614666 -0.09148987 -0.093902424 -0.18848066 -0.09564823 -0.048151873
0.03904106 -0.069279656 0.108575664 -0.001042284 -0.24282804 -0.08627982 -0.112840764 0.20755173
-0.15362819 -0.06512095 -0.13052216 0.13266364 -0.07920827 -0.32480943 0.16697147 0.257712
-0.016915023 -0.11204311 -0.31201687 -0.16564566 -0.0037038804 -0.0581805 -0.04118334 -0.21989183
-0.2840067 -0.15001318 -0.34458914 -0.040848114 -0.19323377 0.022364853 -0.07103946 0.010977634
-0.14876911 -0.25053415 -0.0559626 -0.26753673 -0.20188183 0.15095693 -0.08719734 -0.12387371
-0.07481518 -0.34699982 -0.2246464 -0.13909079 -0.004670277 -0.06489746 -0.061077192 -0.30413216
-0.11119006 -0.13294563 -0.09419749 -0.25044894 -0.15184066 -0.14131398 -0.29089537 -0.28663924
-0.07645812 0.55880463 0.107430875 0.019895082 -0.16584371 -0.21569736 0.13668917 0.25881097
0.013399031 -0.17480113 -0.26011124 -0.10024806 -0.11291185 -0.12255516 -0.06905207 0.12947538
0.3880789 -0.033397317 -0.17722723 -0.15099888 0.24795917 0.20532472 -0.02733656 -0.052318946
0.09776174 -0.16461125 0.0027757306 0.267998 0.22018106 -0.0047594905 -0.025800075 -0.18528019
-0.19126627 0.029523976 -0.11546933 0.27342644 0.3051983 -0.088042244 -0.1893641 -0.15327486
0.25267026 0.15914395 -0.20971301 -0.27211836 0.12591904 0.12469331 -0.06503329 -0.18458997
-0.08106625 0.24219677 -0.20417789 0.039836355 -0.27664298 -0.19971144 -0.042405616 -0.23501003
0.24015096 -0.20257223 0.19902498 0.088885985 -0.0780598 -0.06182129 0.28555042 -0.27711427
-0.0774422 -0.30352226 -0.11358975 -0.075063735 0.5071213 -0.03789065 0.0486875 0.007262764

linear2.weight f4 [3, 256]
00000000: 0138 5dbe dda1 b53c 8bff f7be 4ee5 8c3d
00000010: 3372 8abe a1cb 08bc 5cf4 dc3d 5646 863d
00000020: 92a9 8b3e 1966 a6bd f48f 52be d915 2abe
00000030: 3e0f 6e3d 2416 3fbe b359 0b3e 7b4f b3bd
00000040: 526b 1f3d 90a6 933e f2f0 323e 3a5b 11bd
00000050: 1152 143b 70c8 f8bd c47e 063e 08bb 5abd
00000060: 3dbe b13e a228 903e f824 85be 6882 1abe
00000070: 4c7c 31bd a6af a23c b7d6 08be a333 f53e
00000080: df77 b1be 13e5 8dbe a0e3 ae3e 4eea 11bd
00000090: aff0 a43d e06e 283e ba9a e1bc fb5e 2fbe
000000a0: b4b7 5b3e 2cd8 913c 71cb 0b3e ccf3 18be
000000b0: 0ce6 b6be 62ed 7e3d 8d70 32be 566f b7be
000000c0: 7d7b 813e ab82 0dbf 3ca6 1d3e 7bec b13d
000000d0: 0b55 f2be 1990 1bbe e93f 57bd d928 dbbe
000000e0: e597 fabe 25e8 db3e 48e3 113c 5ee9 bebe
000000f0: 81d7 20be 2c6b fe3d 9afe 4abd 8168 06bf
00000100: 1283 27be 82c9 883e 87bf 4abd 81c1 36be
00000110: 0a77 02be 1e97 19be 1b5a cf3e 703e b2be
00000120: bcc8 a63e 6e93 6fbe e33f 9d3b 501c 40bd
00000130: 98fa 153e 0cc2 f5bc b363 543e 264b b8bd
00000140: d5c0 bdbd 41f1 5abe b47b e9be 073a 03bd
00000150: b3b5 0abf 988d ebbe 443d b93e d9db b43e
00000160: 3b25 17be 0eff 94bb 40dc 9d3e 1dd5 99bd
00000170: e6d4 f1be e025 953e e328 04be ce53 b4bd
00000180: 7ed1 f5bd 2aa3 12be 66c8 f5be d5e1 52bc
00000190: 5575 5cbe 270e 8a3d c7ea a73e 3db7 febd
000001a0: d86f 99bc f758 74be 1d05 bbbe 5632 0dbe
000001b0: de8f 1b3d 085b dfbd 57b2 903e a909 783e
000001c0: e2a2 e33c 5618 9a3e 0f51 6dbd 5b36 103e
000001d0: cfff 8d3e 1890 853e 1c9c 623e be90 fb3c
000001e0: e46e 0fbc e396 e3bd bced 2ebc b672 b4be
000001f0: 0a5d 56bd d3d1 1ebe 20e2 8dbc 5965 24be
00000200: c16f c7be 8e6a fd3a b680 ad3e b714 b43d
00000210: e69a 08be 3caa 3c3e 4c0c 9fbe 4d62 e43e
00000220: 6f56 1e3c 07b0 8abe d008 ecbe 4c60 5cbd
00000230: 78cd fcbe e3bc d03c 5b70 afbc 8e70 b33e
00000240: aef8 45bd f7dc 76be c254 67be a013 1dbd
00000250: 45ed 07bd 0b3a 99bd 4cdc 4abe 4c13 50be
00000260: dc43 1cbe cd72 2f3e 7968 74be 0604 d33d
00000270: 9120 62be 49e5 a43e cb9b 43be 573e 1b3c
00000280: 8468 febe 6c8e 7ebe 2f2f 933e afc7 9fbe
00000290: 1748 32be d683 ca3e b8c1 283e 2cdb ffbe
000002a0: 66da 55bd ede4 d0bd 3ab0 92be c380 dfbd
000002b0: 7430 03be 8faf aabe 0e12 e0bd 4d36 8cbe
000002c0: f300 edbe d3f9 75be 6631 debd 0604 06bd
000002d0: 5d63 ccbe ada2 5cbe 48d3 d83c ba0c 3fbe
000002e0: df00 60bd 738f a03e 7454 7b3e d618 bebd
000002f0: a17f 1cbd 556b 9dbe 864c 8fbb d9dc c13d
00000300: c3ad df3e 1f1d c0be 693a 8dbd 8e3d f33d
00000310: a2c2 88bc 48ef f4be ba15 80be 38f9 7bbb
00000320: 47f3 bc3e 4f2b 113e f4f2 db3a 0b0b bebd
00000330: 0fde 783e 7187 80be b657 76be 96c4 30bd
00000340: 826a 23be 539a 60be 7221 d3be b4fb d33e
00000350: f07a 573e 2aae 34be 8a8c 5b3e 995c cebe
00000360: 77bf abbe e2c6 06be 5392 413d a1e3 f33e
00000370: 8d99 833e 0ed9 ce3d a0a5 073e b463 dfbe
00000380: 43d5 ad3e 6d96 0abe f5a4 783e baa0 79be
00000390: 50a4 813e 1c96 173c 83a9 a43e 3745 813e
000003a0: 7e51 6abd f8ca b03d a300 c1be 2fbe 0bbf
000003b0: 46d0 1e3d 7671 67be 699a ecbd 46f4 b3bd
000003c0: 4aec b33e 9a8f b03e bd92 c63e 9409 803e
000003d0: 3468 d9bd 4f63 79be f142 5e3e a33c 56be
000003e0: 7dfb c3be 4b66 eb3c bb18 a5be 1814 48be
000003f0: 4dce bc3e 08cc 833e 473e 2a3f e4e2 12be
-0.21603395 0.022171909 -0.4843715 0.06879674 -0.27040252 -0.00834933 0.10788795 0.06556384
0.2727781 -0.08124942 -0.20562726 -0.16609897 0.058120005 -0.1866079 0.13608436 -0.08755394
0.038920708 0.28838015 0.17474726 -0.03548739 0.0022631923 -0.121476054 0.13134295 -0.053401023
0.34715453 0.28156 -0.26004767 -0.15088809 -0.04333143 0.019859146 -0.13363157 0.47890958
-0.34661767 -0.27713832 0.3415804 -0.03562384 0.08053719 0.16448545 -0.0275396 -0.17126076
0.21456796 0.017803274 0.13651825 -0.14936751 -0.35722387 0.062238105 -0.17425747 -0.3582713
0.25289527 -0.5527751 0.15395445 0.08687683 -0.47330508 -0.15191688 -0.052551184 -0.42804602
-0.4894401 0.4295055 0.008904286 -0.3728742 -0.15707208 0.12422785 -0.049559213 -0.5250321
-0.16358593 0.26716238 -0.04949906 -0.17847253 -0.12740722 -0.14999053 0.40498433 -0.3481326
0.32575023 -0.23396084 0.0047988757 -0.046902 0.14646375 -0.029999755 0.20741157 -0.089987084
-0.092652954 -0.21381094 -0.4560219 -0.03203776 -0.541835 -0.46006465 0.36179554 0.3532398
-0.14760296 -0.0045470065 0.308321 -0.07511351 -0.4723274 0.2913046 -0.12906222 -0.08805047
-0.12002848 -0.14320055 -0.48004454 -0.012871225 -0.21529134 0.067409806 0.32796308 -0.12437294
-0.018730089 -0.23862062 -0.3652734 -0.13788733 0.037979 -0.10906035 0.28261063 0.24222435
0.02778763 0.30096692 -0.05793863 0.14083235 0.2773423 0.26086497 0.22129864 0.030708667
-0.008754466 -0.11112764 -0.0106767975 -0.35243767 -0.052334823 -0.15509729 -0.017319739 -0.16054286
-0.3895245 0.0019334124 0.3388726 0.087930135 -0.13340339 0.18424314 -0.3106407 0.44606248
0.009664162 -0.27087423 -0.46100473 -0.053802773 -0.4937551 0.025480693 -0.02141588 0.3504681
-0.048332863 -0.24107729 -0.22590926 -0.038348794 -0.033185262 -0.07481774 -0.19810599 -0.20319861
-0.15260261 0.17133637 -0.23867978 0.10303502 -0.22082736 0.3220618 -0.19102399 0.009475312
-0.49689114 -0.24859017 0.28746936 -0.31207034 -0.17410313 0.39553708 0.16480148 -0.49971902
-0.052210234 -0.10199914 -0.28650075 -0.10913231 -0.12811452 -0.33337066 -0.10940944 -0.27385178
-0.46289787 -0.24021082 -0.10849266 -0.03271868 -0.39919558 -0.21546431 0.026467934 -0.18657199
-0.05468833 0.31359443 0.24543935 -0.09282081 -0.038207654 -0.3074595 -0.004373136 0.094659515
0.43687257 -0.37522218 -0.068959065 0.11876975 -0.01669437 -0.47838807 -0.25016576 -0.0038448106
0.36904356 0.14176677 0.001678078 -0.0927945 0.24303459 -0.25103334 -0.24056897 -0.04315623
-0.15958598 -0.2193387 -0.41236454 0.41402972 0.2104299 -0.17644563 0.2144033 -0.4030502
-0.33544514 -0.13161805 0.047258686 0.47634605 0.25703087 0.10099994 0.13246775 -0.43630755
0.33951768 -0.13533945 0.24281676 -0.24377719 0.25320673 0.009252097 0.32160577 0.2524812
-0.057206623 0.08632463 -0.37695798 -0.5458707 0.038772844 -0.22601876 -0.11552889 -0.08786826
0.35141212 0.3448456 0.38783827 0.25007308 -0.10615578 -0.2435429 0.21705224 -0.20921569
-0.38277808 0.0287353 -0.3224543 -0.19538915 0.36876145 0.257416 0.6650128 -0.14344364

linear2.bias f4 [3]
00000000: 9dd9 363e 0ca1 973d 53d6 903c
0.1785645 0.07403764 0.017680323
